Audio/05.MorzeDecoder/best_model_debug.pt (torch, 706215 bytes, 14 tensors)

conv.0.weight f4 [16, 1, 3, 3]
0	0x3e45be7a	0.19310942
1	0x3f132f01	0.574936
2	0x3eb74b1b	0.35799488
3	0xbeba846f	-0.36429164
4	0xbb020d5e	-0.0019844393
5	0xbeeed265	-0.46644893
6	0x3e8b4554	0.2720133
7	0xbe01fa06	-0.12693033
8	0xbe8fc114	-0.28076994
9	0x3d909297	0.0705921
10	0xbe2f5e0c	-0.1712572
11	0xbddeb20c	-0.108738035
12	0xbe913e1e	-0.28367704
13	0xbea851b4	-0.32874835
14	0x3e23d3a6	0.15998706
15	0x3e89f0eb	0.26941618
16	0x3ea05427	0.31314203
17	0xbe76a2c7	-0.24085532
18	0x3dfb6aad	0.12276206
19	0xbddd2fd9	-0.10800142
20	0xbe5feb91	-0.21867205
21	0xbe9638cb	-0.29340205
22	0xbd63b79e	-0.055595033
23	0x3edce8ef	0.43146464
24	0xbe235afd	-0.15952678
25	0xbee6fe64	-0.4511596
26	0x3f2de2ca	0.6792418
27	0x3eb6335b	0.35586056
28	0x3e46c3df	0.19410656
29	0xbf0b2dbd	-0.54366666
30	0xbe37503c	-0.179017
31	0xbe137b31	-0.14402463
32	0x3e37d512	0.17952374
33	0x3e993efd	0.2993087
34	0x3e481b14	0.1954158
35	0x3e90a36d	0.28249684
36	0xbc5a0677	-0.013307205
37	0x3b86ef25	0.0041178637
38	0x3bbfd7db	0.0058545894
39	0xbde76f1e	-0.11300491
40	0x3c945356	0.018106144
41	0x3d9ccd83	0.07656386
42	0x3f2a2ee1	0.6647778
43	0xbefd0d5c	-0.49424255
44	0xbd943a16	-0.072376415
45	0xbd52d2f9	-0.05147073
46	0x3e88f7bd	0.2675151
47	0x3ead7baa	0.3388341
48	0xbe144f1a	-0.144833
49	0xbe42b415	-0.19014008
50	0xbf180d6e	-0.5939549
51	0x3e491623	0.1963735
52	0x3ba1a159	0.004932564
53	0x3ea9c171	0.33155397
54	0x3c32af2a	0.01090602
55	0xbcbd41ad	-0.023102606
56	0xbd5e6500	-0.05429554
57	0x3e99a7eb	0.30010924
58	0xbf0ef3ef	-0.55840963
59	0x3e97f788	0.2968104
60	0x3dfda763	0.12385442
61	0xbf1e160c	-0.6175239
62	0x3f047003	0.51733416
63	0x3de26208	0.11053854
64	0xbe91ab86	-0.28451174
65	0x3d9e59d2	0.077319756
66	0x3dcd42c7	0.100225024
67	0xbeb29602	-0.34880072
68	0x3ea381e2	0.3193503
69	0x3e873a80	0.2641182
70	0xbe86c702	-0.26323706
71	0x3da81f73	0.082091235
72	0xbde44b44	-0.11147168
73	0xbda13af6	-0.07872574
74	0xbdc83cd2	-0.097772256
75	0x3ed5b6da	0.41741067
76	0xbe1a0a97	-0.15043102
77	0x3e158407	0.14601146
78	0x3e52690d	0.20547886
79	0xbe81a3d1	-0.25320294
80	0xbe086849	-0.13321032
81	0x3ec4cea3	0.384389
82	0xbdea41f8	-0.11438364
83	0xbe85cae3	-0.26131353
84	0x3dd2bec2	0.102902904
85	0xbda79d37	-0.08184283
86	0xbe87cb07	-0.26522085
87	0xbd52b64d	-0.051443387
88	0xbe84131e	-0.25795835
89	0xbd9f170c	-0.07768068
90	0xbd29d1e7	-0.041459944
91	0xbe2d5e7e	-0.16930577
92	0x3e07934a	0.1323978
93	0x3e9b1e5f	0.3029661
94	0x3e9d0f1f	0.306756
95	0xbf120eb1	-0.5705367
96	0x3ea382a3	0.31935605
97	0x3e9d084f	0.306704
98	0xbf171046	-0.59009206
99	0x3ede0ed1	0.4337068
100	0xbe4817db	-0.1954035
101	0x3e6f28ad	0.2335536
102	0xbdf9cb81	-0.121970184
103	0xbde46532	-0.11152114
104	0xbef6b575	-0.48185316
105	0x3dcdee44	0.10055211
106	0xbd1745e4	-0.036931887
107	0x3e988c5d	0.2979459
108	0xbec29159	-0.38001516
109	0x3ec212c9	0.37904957
110	0xbd7d5f67	-0.06185856
111	0xbee7b944	-0.45258534
112	0xbd5e4130	-0.054261386
113	0x3f2a505d	0.66528875
114	0xbef69779	-0.4816244
115	0x3e1e18e7	0.15439187
116	0x3e9b523d	0.3033618
117	0x3de1da29	0.11027939
118	0x3cb5ac5f	0.02217692
119	0xbe1792e6	-0.14802131
120	0x3d8745f9	0.06605143
121	0xbe3ad1c8	-0.18244088
122	0xbe7db661	-0.24776603
123	0x3e91c57c	0.2847098
124	0xbeaeda73	-0.3415104
125	0x3da39bea	0.079887226
126	0x3e000b0e	0.12504217
127	0xbe5ba29b	-0.21448748
128	0x3bbb9692	0.0057247365
129	0x3ebede11	0.37278798
130	0xbe6cbc10	-0.23118615
131	0xbde5391c	-0.111925334
132	0x3ee5db11	0.44893697
133	0xbe5c0a1b	-0.2148823
134	0xbe853aa9	-0.26021317
135	0xbf097b4b	-0.53703755
136	0xbdc11eb5	-0.09429685
137	0xbef9b22b	-0.48768744
138	0xbbf34dae	-0.0074250316
139	0x3eb03fab	0.34423575
140	0xbe44113f	-0.19147204
141	0x3f0502ae	0.51957214
142	0x3ed20798	0.4102142
143	0x3e7e38e6	0.24826393

conv.0.bias f4 [16]
0	0xbea0159f	-0.31266496
1	0xbeaabc35	-0.33346716
2	0x3d165f1f	0.03671181
3	0xbf0d3784	-0.55162835
4	0xbd3adbf5	-0.045619924
5	0xbe95b14f	-0.29236838
6	0xbd0119c7	-0.031518724
7	0xbd178055	-0.03698762
8	0xbd955d79	-0.07293219
9	0xbf1aee65	-0.6052001
10	0xbd971fd6	-0.07379119
11	0xbdcf36f0	-0.101179
12	0x3d469e3c	0.048490748
13	0x3dbb1128	0.09134132
14	0x3d2a3a2b	0.04155938
15	0xbe979e71	-0.2961307

conv.3.weight f4 [32, 16, 3, 3]
0	0x3d3adeef	0.045622762
1	0x3e19ece4	0.15031773
2	0xbe46e728	-0.19424117
3	0xbe192473	-0.1495531
4	0xbe311f9e	-0.17297217
5	0xbc5cb05d	-0.013469783
6	0xbe360629	-0.17775787
7	0xbddcf429	-0.10788757
8	0x3eb38c13	0.35067806
9	0xbaf87853	-0.0018956758
10	0xbe081567	-0.13289414
11	0x3dce0c84	0.10060981
12	0xbe256e88	-0.16155446
13	0xbc0015c5	-0.00781769
14	0xbe2f4847	-0.17117415
15	0x3e8a05c9	0.2695754
16	0x3e5f2072	0.2178972
17	0xbbb87dcc	-0.0056302305
18	0x3ddaa88e	0.106766805
19	0x3d59943c	0.053119883
20	0xbd29023c	-0.041261896
21	0xbd5a6dc5	-0.05332734
22	0x3e20cbaf	0.15702699
23	0x3d7e52ad	0.062090565
24	0xbdc9c460	-0.09851909
25	0xba831839	-0.0010001726
26	0xbdbdf770	-0.092757106
27	0xbe3bba98	-0.18332899
28	0xbe3de1ba	-0.18543139
29	0x3e584418	0.21119726
30	0xbe777068	-0.24163973
31	0xbd1cf446	-0.038318895
32	0x3ea85c3d	0.32882872
33	0x3e5c475e	0.215116
34	0x3e3fff8b	0.18749826
35	0xbe114cb5	-0.14189418
36	0x3e13e2b4	0.14441949
37	0x3cb41316	0.021981757
38	0xbea10956	-0.31452435
39	0x3ed8d651	0.4235101
40	0xbd2f12bf	-0.042742487
41	0xbf002332	-0.50053704
42	0xbe62875a	-0.22121945
43	0x3a5e4a0d	0.00084796624
44	0x3e02c8f9	0.12771977
45	0x3e637359	0.2221197
46	0x3e0bb457	0.13643013
47	0xbe8ce4a4	-0.2751819
48	0xbe3f2993	-0.18668203
49	0x3c5629b9	0.013071471
50	0x3e9820e6	0.297126
51	0x3e3b1881	0.18271066
52	0x3e2709fb	0.16312401
53	0x3e05f24f	0.13080715
54	0xbcde02aa	-0.02710088
55	0xbcbcb4d5	-0.023035446
56	0xbd3579f6	-0.044305764
57	0xbdc041ba	-0.09387536
58	0x3edf7c88	0.43649697
59	0xbf15aa1e	-0.58462703
60	0xbd30743e	-0.043079607
61	0xbab51174	-0.0013814406
62	0x3d9d227e	0.076725945
63	0x3d6c9b5d	0.057765353
64	0xbe0e0066	-0.1386734
65	0xbacf0eb0	-0.0015797224
66	0x3d4f96ad	0.050680805
67	0xbd9fbfe4	-0.07800272
68	0xbdb18e3e	-0.08669709
69	0x3c83fc6d	0.016111577
70	0x3de575bc	0.11204097
71	0xbd51e956	-0.051247917
72	0x3dbb3d28	0.09142524
73	0xbc4598a8	-0.012060322
74	0xbe0e6920	-0.1390729
75	0x3dff9779	0.12480063
76	0xbd9faf52	-0.077971116
77	0x3ca24954	0.019810356
78	0x3dae5edf	0.08514189
79	0x3d4da7d1	0.05020887
80	0xbe05a31a	-0.130505
81	0xbd29ab6d	-0.04142325
82	0xbe100ad4	-0.1406663
83	0x3d1877f0	0.037223756
84	0xbe0ef17d	-0.13959308
85	0xbe305fca	-0.1722404
86	0x3cddae76	0.027060729
87	0xbd0e4149	-0.03473023
88	0xbd75014b	-0.059815686
89	0xbdc3da53	-0.095631264
90	0xbe9d5947	-0.30732176
91	0xbe2ed6d2	-0.17074135
92	0xbd89c06b	-0.06726154
93	0x3e22e4cf	0.15907596
94	0xbf305139	-0.68873936
95	0xbefb1c8a	-0.4904521
96	0xbe9746e6	-0.2954628
97	0xbe06a049	-0.13147081
98	0x3c174763	0.0092333285
99	0xbc3938fa	-0.011305088
100	0xbb9ade89	-0.0047262353
101	0xbdbb56d0	-0.091474175
102	0x3e0feff8	0.14056385
103	0xbd2ae79f	-0.041724797
104	0xbbc97453	-0.0061479
105	0x3e96c7a1	0.2944918
106	0xbdd12a85	-0.10213188
107	0xbe2d6b41	-0.16935445
108	0x3d6ebe43	0.058286916
109	0x3d04b81a	0.032402135
110	0x3da41eb0	0.08013666
111	0xbf236e65	-0.63840324
112	0x3e97122a	0.29506046
113	0x3ebe77ef	0.37200877
114	0xbe80bca1	-0.25143912
115	0x3d25fe6d	0.040525842
116	0x3e2dd51e	0.16975829
117	0x3e17edf0	0.1483686
118	0xbe068d40	-0.1313982
119	0x3cacfc43	0.021116382
120	0x3d5e9304	0.054339424
121	0x3a479149	0.0007612897
122	0xbdf2ff31	-0.1186508
123	0x3b62edbf	0.003462657
124	0x3bdc926b	0.0067313216
125	0xbdea818e	-0.11450492
126	0xbc895b42	-0.016767148
127	0xbe35974a	-0.17733493
128	0x3d1702a6	0.03686776
129	0x3e9a7be6	0.30172652
130	0xbe8cfba8	-0.27535748
131	0xbe8c8da7	-0.27451822
132	0x3d7ccafe	0.061717026
133	0xbe3d1321	-0.18464328
134	0xbe3a8ad8	-0.18217027
135	0x3d2a9076	0.041641675
136	0xbd9fb6d1	-0.07798541
137	0x3e31c435	0.17360003
138	0xbe18f1af	-0.14935945
139	0xbea74ba5	-0.326749
140	0x3ea7463e	0.32670778
141	0x3b8330a6	0.004003602
142	0x3cb27d45	0.021788249
143	0xbe76a1a2	-0.24085096
144	0x39a0c3b6	0.00030663394
145	0xbd88a840	-0.06672716
146	0xbd277b23	-0.040888917
147	0x3cc83a5e	0.024441894
148	0xbe08e4f0	-0.13368583
149	0xbddbf728	-0.10740501
150	0x3e00101b	0.12506144
151	0xbdbc4825	-0.09193448
152	0xbe1a7ca7	-0.15086614
153	0x3e95627b	0.29176697
154	0x3e6e586c	0.23275918
155	0x3d2a73e6	0.041614436
156	0x3d64d8a7	0.05587068
157	0x3dac3b5a	0.08409758
158	0xbdb3d99b	-0.08781739
159	0xbe156aab	-0.14591472
160	0xbe1aeaee	-0.15128681
161	0xbe2f718f	-0.17133163
162	0x3e38d686	0.18050584
163	0x3dbc00e2	0.09179856
164	0x3dd71778	0.10502523
165	0xbebc8f09	-0.36827877
166	0xbe8f3524	-0.2797023
167	0xbe2c520f	-0.16828178
168	0xbddb9789	-0.107222624
169	0xbe8c68bb	-0.27423653
170	0x3dd02bbf	0.10164594
171	0x3da54ab8	0.08070892
172	0xb99e90d5	-0.00030244017
173	0xbd51c9fe	-0.051218025
174	0x3e401ad1	0.1876023
175	0x3d2ca7d9	0.04215226
176	0x3e0176aa	0.12642923
177	0xbd0b6659	-0.034033153
178	0xbce1d4cd	-0.027567292
179	0x3e6eb7e2	0.23312333
180	0xbdb0d0ad	-0.08633552
181	0xbebc001c	-0.36718833
182	0xbe52ca7e	-0.20585057
183	0xbeafd82c	-0.34344614
184	0xbf339017	-0.7014174
185	0xbea347b9	-0.31890658
186	0x3e389308	0.18024838
187	0xbc67a63c	-0.014138754
188	0x3d804028	0.06262237
189	0x3deb2b07	0.11482816
190	0xbd80f9da	-0.062976554
191	0x3e096456	0.13417181
192	0x3dd1b842	0.102402225
193	0xbd9dab95	-0.07698742
194	0xbd039b03	-0.032130253
195	0x3e365ad2	0.17808083
196	0xbdf00700	-0.11720085
197	0x3d5465f3	0.05185504
198	0xbe5b2e2d	-0.21404333
199	0xbf02e9df	-0.5113811
200	0xbe7da30b	-0.24769227
201	0xbfa20d89	-1.2660381
202	0xbfa229ef	-1.2669047
203	0xbf1345b7	-0.5752825
204	0x3ef83759	0.48479727
205	0xbe6fb31c	-0.23408169
206	0x3eb4b504	0.35294354
207	0x3d8a5221	0.06753946
208	0x3d20846a	0.03918878
209	0x3d78f4d4	0.06078036
210	0x3e4aff5f	0.19823979
211	0x3bd322a1	0.006443337
212	0x3d996dee	0.074916705
213	0xbe05ebe5	-0.13078268
214	0xbe68f2cc	-0.2274887
215	0xbe0fa24b	-0.14026754
216	0xbc6eda63	-0.014578435
217	0xbdca4135	-0.098757185
218	0xbe3e1a90	-0.1856482
219	0x3db59d76	0.08867924
220	0x3c4857b1	0.0122279385
221	0x3da11ee8	0.07867223
222	0xbea2673c	-0.31719387
223	0xbd4fc4f7	-0.05072495
224	0xbd766ca1	-0.06016219
225	0x3e1aa28e	0.15101072
226	0x3d319a57	0.04336008
227	0xbd092783	-0.033484947
228	0x3dcbefbd	0.09957836
229	0x3d5ecf51	0.05439693
230	0x3a9b8189	0.0011864166
231	0xbdf71c06	-0.12065892
232	0xbe5520a4	-0.20813233
233	0xbe60bc03	-0.21946721
234	0xbed74b5d	-0.42049685
235	0xbe2675ae	-0.16255829
236	0xbd054fe5	-0.032546896
237	0xbfe736b0	-1.8063564
238	0xbfb62b8f	-1.4232043
239	0x3f08ee51	0.5348864
240	0xbf173c15	-0.5907605
241	0x3d41119f	0.047135945
242	0xbece65b9	-0.40311983
243	0x3df14c3c	0.11782119
244	0xbd8a7b9c	-0.06761858
245	0xbd1aa328	-0.037753254
246	0x3cdc3b1d	0.026883656
247	0xbd1db2ac	-0.038500473
248	0x3d338ed4	0.043837383
249	0x3e913bdb	0.2836598
250	0x3d54cd14	0.05195339
251	0x3e765ff0	0.24060035
252	0xbc84d6f4	-0.016215779
253	0x3d15b4df	0.036549445
254	0x3c217f1d	0.009856966
255	0xbd469a12	-0.048486777

conv.3.bias f4 [32]
0	0x3cdb90d2	0.026802454
1	0x3e77edf3	0.24211864
2	0xbe52fdff	-0.20604704
3	0x3d208947	0.039193418
4	0x3e0796fd	0.13241191
5	0xbda97e5c	-0.08276054
6	0xbd8f4c74	-0.06997004
7	0x3cd1619a	0.025559235
8	0xbd825c07	-0.06365209
9	0x3dd1a8ac	0.1023725
10	0x3c68db28	0.014212407
11	0x3d3c49b1	0.045968715
12	0x3db7fb89	0.089835234
13	0x3e2898fb	0.16464607
14	0xbe387248	-0.18012345
15	0xbd4f9741	-0.050681356
16	0x3db9f64b	0.0908018
17	0x3e194eda	0.14971486
18	0x3c21e8d0	0.009882167
19	0x3dac5ffb	0.08416744
20	0xbe7978e0	-0.24362516
21	0xbd747546	-0.059682153
22	0xbdaf46c2	-0.08558418
23	0xbe179ae4	-0.1480518
24	0xbe0915a9	-0.13387169
25	0xbdc1c4df	-0.09461378
26	0x3e8a9c05	0.27072158
27	0xbd36af74	-0.04460092
28	0xbe8b55ba	-0.27213842
29	0xbdb8177b	-0.089888535
30	0x3e4f3edb	0.20238821
31	0x3d678e00	0.056531906

lstm.weight_ih_l0 f4 [256, 256]
0	0x3c85372f	0.016261665
1	0xbe0490a4	-0.12945801
2	0xbdf8548c	-0.12125501
3	0x3e92a3d7	0.28640625
4	0x3e86feb0	0.26366186
5	0x3e37c7cc	0.1794731
6	0x3d07e06b	0.033173006
7	0x3c3d1139	0.011539751
8	0x3cb3a2e6	0.021928262
9	0x3dcba0b8	0.09942764
10	0x3e8e5e10	0.2780614
11	0x3e9e2a6d	0.30891743
12	0x3e8278ad	0.25482693
13	0x3e7bf409	0.24604811
14	0x3e42a491	0.1900809
15	0xbb5c9abc	-0.0033661565
16	0x3d59427e	0.053041928
17	0x3c1595ce	0.0091299545
18	0xbdb248f7	-0.08705323
19	0x3e08b63b	0.13350765
20	0x3d84b659	0.064800926
21	0x3e520d52	0.20512894
22	0x3df3b4ca	0.11899717
23	0x3d49e045	0.049286146
24	0x3e969db1	0.29417184
25	0x3e37a3d3	0.17933588
26	0xbe329666	-0.17440185
27	0x3ebc1724	0.36736405
28	0x3d41825d	0.047243465
29	0x3e5ace33	0.21367721
30	0x3d2699ae	0.040673904
31	0x3cbdc663	0.023165887
32	0xbd3bef0f	-0.04588228
33	0x3e3c53e2	0.18391374
34	0x3e453eb9	0.19262208
35	0x3dac95fc	0.08427045
36	0x3e7aa958	0.24478662
37	0x3e99158c	0.2989925
38	0x3ec17b05	0.3778917
39	0x3e63cc71	0.22245957
40	0x3d513a14	0.05108078
41	0xbdd5ef57	-0.10446041
42	0xbd3f3330	-0.046679676
43	0x3d34e912	0.044167586
44	0x3d479e59	0.048734996
45	0x3c91efa2	0.017814461
46	0xbd575310	-0.05256945
47	0x3def934a	0.11698015
48	0xbd9dde94	-0.07708469
49	0xbde45d22	-0.11150576
50	0xbd3ef127	-0.0466167
51	0x3db2847f	0.08716678
52	0xbd6c3834	-0.057670787
53	0x3dd329a0	0.10310674
54	0x3db3bd2c	0.08776316
55	0x3d9bb4da	0.07602854
56	0xbd14800d	-0.03625493
57	0x3e29dfa6	0.16589221
58	0xbe078007	-0.13232432
59	0x3d6f9128	0.05848804
60	0x3e4b7d73	0.19872074
61	0x3d0d01c0	0.034425497
62	0x3ea9a0c9	0.33130482
63	0x3e178ef0	0.1480062
64	0x3e19e1f4	0.150276
65	0x3e6ae6f1	0.2293966
66	0x3e6f3488	0.23359883
67	0x3cccc62c	0.02499684
68	0x3bfb8542	0.0076757977
69	0x3e31bbf1	0.1735685
70	0xbe558c2e	-0.20854256
71	0xbdb99453	-0.09061494
72	0xbd81336e	-0.063086376
73	0x3e09bb38	0.13450325
74	0xbb4ee255	-0.003156801
75	0xbdc33b1a	-0.09532757
76	0x3e19d6c8	0.15023339
77	0x3d9ba18b	0.07599171
78	0xbe161412	-0.14656094
79	0xbd2cbc70	-0.042171896
80	0x3e6037ee	0.21896335
81	0x3ea6788b	0.32513842
82	0x3e7023b7	0.23451124
83	0x3db9e15f	0.09076189
84	0xbbcd2b19	-0.006261241
85	0xbd08113f	-0.033219572
86	0x3e859ebd	0.2609767
87	0x3e6b7b90	0.22996354
88	0x3da38e5f	0.079861395
89	0x3e92d7b6	0.286802
90	0x3c89d798	0.016826436
91	0x3e1e2340	0.15443134
92	0x3d064bdd	0.032787193
93	0x3dbb23d8	0.09137696
94	0x3d904b41	0.070456035
95	0xbc60bf4c	-0.013717484
96	0x3b9bc07a	0.0047531696
97	0xbdd4c005	-0.10388187
98	0xbb2c2707	-0.002626838
99	0x3c44781c	0.011991527
100	0x3d7bc152	0.06146366
101	0x3e56d682	0.20980266
102	0x3e296731	0.1654327
103	0xbd9bef2b	-0.07613977
104	0xbc021030	-0.00793843
105	0x3dac9ae4	0.084279805
106	0x3e214bc4	0.15751559
107	0x3da0114c	0.07815799
108	0x3e81cdde	0.25352377
109	0x3e455513	0.19270734
110	0x3eb0c2d8	0.34523654
111	0xbc5c50fb	-0.013447042
112	0x3e4b382b	0.19845645
113	0x3c1b829c	0.009491589
114	0xbd8e4391	-0.06946481
115	0xbe026952	-0.12735489
116	0xbdf4bf9f	-0.11950611
117	0x3c074d32	0.008258151
118	0xbcd5414d	-0.026032114
119	0xbe0b4b93	-0.13603048
120	0x3d420d89	0.04737619
121	0x3e2a0fe3	0.16607623
122	0xbe5635bb	-0.20918934
123	0x3ddaefbd	0.10690258
124	0xbe4ccb2b	-0.19999377
125	0xbdf4ddd4	-0.11956373
126	0x3e5727b9	0.21011247
127	0xbca14d66	-0.019690227
128	0x3de3d38d	0.111243345
129	0x3e8a3d27	0.2699978
130	0x3e487914	0.19577438
131	0xbdeee1c1	-0.11664153
132	0x3e24944d	0.16072197
133	0x3e9ad7ce	0.3024277
134	0x3d965768	0.0734089
135	0x3de4a4bc	0.11164233
136	0x3e6d8e08	0.23198712
137	0x3e213071	0.15741135
138	0x3eb5e9cc	0.35529935
139	0x3e12c103	0.1433144
140	0x3e5ef10e	0.21771643
141	0x3e34158e	0.17586347
142	0x3ea95379	0.33071497
143	0xbc5e0e1f	-0.013553171
144	0xbe15b88b	-0.14621179
145	0xbcb85e25	-0.02250583
146	0x3a100146	0.0005493354
147	0xbd86662b	-0.06562456
148	0x3be8dbaf	0.0071062665
149	0x3d27f9e1	0.041009787
150	0x3da43668	0.0801819
151	0x3c91b6f0	0.017787427
152	0x3de75c5a	0.112969115
153	0xbd933605	-0.07188038
154	0x3dc2fce2	0.0952089
155	0x3d61da2d	0.05513971
156	0xbdcd7265	-0.10031585
157	0x3e054a66	0.13016662
158	0x3d9b65ff	0.075878136
159	0x3d82183f	0.06352281
160	0xbdb72f27	-0.089445405
161	0x3d887ebb	0.06664797
162	0x3e26f15d	0.1630301
163	0xbdfdcc1e	-0.12392448
164	0x3d586279	0.052828286
165	0xbd533d17	-0.05157193
166	0x3d55b9c1	0.0521791
167	0x3db2d19e	0.087313876
168	0x3db457a2	0.08805777
169	0x3dbc1819	0.09184284
170	0xbe50e7d8	-0.20400941
171	0x3eb82171	0.35963014
172	0x3e1ce29d	0.15320821
173	0x3dd499a0	0.10380864
174	0x3de1ec82	0.110314384
175	0x3de7269f	0.11286663
176	0x3ca16468	0.019701198
177	0x3e01fc99	0.12694015
178	0x3d8d6257	0.069035225
179	0x3d621e06	0.055204414
180	0x3eba14ef	0.36344096
181	0x3ec2d6fd	0.38054648
182	0x3e860506	0.26175708
183	0x3db2076b	0.08692821
184	0x3d693269	0.05693284
185	0xbe085bfb	-0.13316338
186	0xbdfdd2f0	-0.12393749
187	0x3ce75646	0.02823938
188	0x3d939858	0.07206792
189	0x3b6deddf	0.0036305112
190	0x3d7a2ff3	0.061080884
191	0x3dc59428	0.09647399
192	0xbd21c0fc	-0.039490685
193	0x3e3decac	0.18547314
194	0x3d7eaa5f	0.062174197
195	0x3dfc8de3	0.1233175
196	0x3df6e1c0	0.12054777
197	0x3e4dbc36	0.20091328
198	0x3e4495ae	0.19197723
199	0xbd44938a	-0.047992267
200	0x3dccaad6	0.09993522
201	0x3c6dd752	0.014516668
202	0xbd127378	-0.03575465
203	0xbda8f76c	-0.08250317
204	0x3b2842ed	0.0025674656
205	0x3d55ece4	0.05222787
206	0x3dcfc7be	0.1014552
207	0x3d14cdb4	0.036328986
208	0x3e146bab	0.14494197
209	0xbcc56640	-0.024096608
210	0x3d4401f2	0.047853418
211	0x3ea0b3ae	0.31387085
212	0x3d51a22a	0.051180042
213	0x3e0a7986	0.1352292
214	0xbe014eaa	-0.12627664
215	0x3ddda0ee	0.108217105
216	0xbdb01a2b	-0.08598741
217	0xbd8d8dc2	-0.06911804
218	0x3db3d089	0.08780009
219	0xbd475c79	-0.048672173
220	0xbdaf90ab	-0.08572515
221	0x3dc82d9a	0.09774323
222	0x3e134555	0.14381917
223	0x3d2981d3	0.041383576
224	0x3d9f773a	0.077864125
225	0x3df86482	0.12128545
226	0xbd5d2d9f	-0.053998586
227	0xbd6ceb6c	-0.057841703
228	0xbd1b3ee1	-0.037901763
229	0xbdc8b8d1	-0.09800876
230	0xbb2434c6	-0.002505587
231	0x3e3ae000	0.18249512
232	0xbd55eda1	-0.052228574
233	0xbdbd4692	-0.09241976
234	0x3df4a3ca	0.11945303
235	0xbc866483	-0.01640535
236	0xbbc6f4fb	-0.0060716844
237	0x3daa4f9e	0.08315967
238	0x3cc50caf	0.0240539
239	0xbc73da4e	-0.014883591
240	0x3e3bc928	0.18338454
241	0x3e67fa32	0.22654036
242	0x3d94858c	0.072520345
243	0x3e1f62b0	0.1556499
244	0x3dd03d79	0.10167975
245	0x3e5e2d15	0.21696885
246	0x3e12122e	0.14264748
247	0x3e5a4951	0.2131703
248	0xbacdc78f	-0.0015699732
249	0x3d8b381f	0.067978136
250	0x3e90bb2c	0.282678
251	0xbe0fa2fa	-0.14027014
252	0x3e536a3d	0.20645995
253	0x3de21fce	0.110412225
254	0x3c6bcf51	0.01439269
255	0x3e1fe996	0.1561645

lstm.weight_hh_l0 f4 [256, 64]
0	0xbcf441c7	-0.029816521
1	0xbe683d28	-0.2267958
2	0x3bf7da66	0.007563877
3	0x3dda9612	0.10673155
4	0x3d83c460	0.0643394
5	0xbd22788b	-0.03966574
6	0xba84dda7	-0.0010136858
7	0xbe1a3e24	-0.15062767
8	0x3cf1958e	0.029490259
9	0x3dca8a84	0.09889701
10	0x3e1a7a21	0.15085651
11	0xbd56b171	-0.052415315
12	0x3d2bfd6d	0.041989733
13	0x3de1520d	0.11001978
14	0x3c8116d0	0.015757948
15	0x3d82a5f4	0.06379309
16	0xbe8da057	-0.27661392
17	0xbb9e43b5	-0.0048298487
18	0x3d520620	0.051275373
19	0x3de47e8c	0.111569494
20	0xbdf859aa	-0.12126477
21	0xbd614853	-0.055000614
22	0x3e3a2681	0.1817875
23	0x3e4eb172	0.20184878
24	0x3d3366ef	0.043799337
25	0xbcfde387	-0.030992283
26	0xbe2d4816	-0.1692203
27	0x3eba71c3	0.36414918
28	0x3d917ba4	0.07103661
29	0x3d969077	0.07351773
30	0xbe477777	-0.19479166
31	0xbe42007e	-0.189455
32	0x3e552e3b	0.20818417
33	0x3d3b890a	0.045784988
34	0x3e09536e	0.13410732
35	0x3e39a9e6	0.18131217
36	0xbac904c2	-0.0015336501
37	0x3c714c46	0.014727658
38	0xbda3379a	-0.079695895
39	0x3f100b32	0.5626708
40	0x3cccfc43	0.025022632
41	0xbe02b6ec	-0.12765092
42	0xbe8894aa	-0.26675922
43	0xbda3c12f	-0.07995831
44	0xbe014707	-0.12624751
45	0x3d9159f9	0.07097239
46	0xbe848944	-0.25885975
47	0xbc9b943b	-0.01899158
48	0x3d9c091f	0.07618927
49	0xbd047a03	-0.032342922
50	0x3b4e6170	0.0031491183
51	0xbabb9677	-0.001431181
52	0x3dc270c7	0.09494167
53	0x3e4fb03a	0.20282069
54	0x3d858b94	0.06520763
55	0x3e8b0381	0.2715111
56	0x3e1b5c2f	0.15171884
57	0x3dc631d4	0.09677473
58	0xbe19186c	-0.14950722
59	0x3d7ed02a	0.06221024
60	0x3e54af89	0.20770086
61	0xbe179f1f	-0.14806794
62	0x3df6ffd1	0.12060512
63	0x3dfd2138	0.123598516
64	0x3d34970c	0.044089362
65	0xbd362305	-0.04446699
66	0x3d9b965e	0.0759704
67	0x3e666e06	0.22502908
68	0xbdc4c17c	-0.09607217
69	0xbdc60369	-0.09668619
70	0x3da41381	0.080115326
71	0xbdaf85f9	-0.08570475
72	0xbe04bf66	-0.12963638
73	0xbe804629	-0.25053528
74	0x3f09ad1c	0.5377977
75	0xbe5377bf	-0.20651148
76	0x3e953b09	0.29146603
77	0xbde823ad	-0.113349296
78	0x3b62a37b	0.0034582305
79	0x3d8a82fd	0.06763265
80	0x3f0d3d66	0.5517181
81	0xbddf4e00	-0.10903549
82	0xbe00d03a	-0.12579432
83	0x3ec633ee	0.38711494
84	0x3e97a8a2	0.29620844
85	0x3d792c62	0.060833342
86	0x3e565fe6	0.2093502
87	0xbee0e9b1	-0.43928292
88	0x3c5b8837	0.013399175
89	0xbd469fa6	-0.048492096
90	0x3e886891	0.26642278
91	0xbeda470f	-0.42632338
92	0xbdd785de	-0.1052358
93	0x3e5b8e72	0.21441057
94	0x3df518d0	0.11967623
95	0x3e6b0daf	0.22954439
96	0xbeacfd89	-0.33787182
97	0x3dad8398	0.08472365
98	0xbde172db	-0.11008235
99	0xbdb6083f	-0.088882916
100	0xbe8abb0a	-0.27095824
101	0x3efea0c6	0.49732035
102	0x3e408fac	0.18804806
103	0xbe0caa65	-0.13736875
104	0xbe32147a	-0.17390624
105	0x3e85ed9d	0.26157847
106	0xbe4c41b9	-0.19946946
107	0x3e42062d	0.18947668
108	0x3eee3275	0.4652287
109	0xbeca6d20	-0.3953638
110	0x3ee595d3	0.4484087
111	0xbe28c498	-0.16481245
112	0xbf005d1a	-0.5014206
113	0x3e08df98	0.13366544
114	0x3da6d6eb	0.08146461
115	0xbe8f77a9	-0.2802098
116	0x3dd1f4c7	0.10251766
117	0xbe3ee003	-0.18640141
118	0x3eacbddf	0.3373861
119	0x3bafa41b	0.005360139
120	0xbe22b945	-0.15890987
121	0xbf077949	-0.5291944
122	0xbb50fc2b	-0.0031888585
123	0x3e041a49	0.12900652
124	0x3d03303b	0.032028418
125	0x3e37aa2b	0.17936008
126	0x3ea4ae44	0.32164204
127	0xbd8ee95a	-0.06978102
128	0x3c9063b8	0.017625675
129	0xbc8502d1	-0.016236695
130	0xbdc595b7	-0.096476965
131	0x3ec9aca2	0.3938952
132	0x3d3c1c88	0.045925647
133	0xbe89254c	-0.26786268
134	0xbe665c21	-0.22496082
135	0x3cc28894	0.023746766
136	0xbda04a0b	-0.078266226
137	0xbe1b1d53	-0.15147905
138	0xbdcee14f	-0.10101568
139	0xbe469acc	-0.19394988
140	0xbdb8025f	-0.08984827
141	0x3e018ddf	0.12651776
142	0x3dd4acf9	0.103845544
143	0x3e13e148	0.14441407
144	0x3c26f6ea	0.010190705
145	0x3d815563	0.06315114
146	0x3de76898	0.112992465
147	0xbe0674a2	-0.1313043
148	0xbd6eadd2	-0.058271237
149	0x3e8f5d94	0.28001082
150	0xbddf166e	-0.1089295
151	0x3d484ff1	0.048904363
152	0xbde92c1d	-0.11385367
153	0x3d58aacb	0.052897256
154	0xbec08bab	-0.37606558
155	0xbe0fe94b	-0.14053838
156	0xbdf73243	-0.120701335
157	0xbe0e9dd9	-0.13927402
158	0x3cff6dd9	0.03118031
159	0x3e0a19e2	0.13486436
160	0x3e7dd902	0.24789813
161	0xbe3da73e	-0.18520829
162	0xbe150741	-0.14553548
163	0xbe105a28	-0.14096892
164	0x3e86cc4d	0.26327744
165	0xbd783860	-0.06060064
166	0xbda5e680	-0.08100605
167	0x3d5c078e	0.053718142
168	0xbdbed67e	-0.09318255
169	0xbec12ecd	-0.3773102
170	0xbec0ada4	-0.37632477
171	0xbe40e3f8	-0.18836963
172	0xbea74f93	-0.32677898
173	0x3eab50ee	0.33460182
174	0xbca51ac7	-0.02015437
175	0xbe925503	-0.28580484
176	0x3d2c78c3	0.042107355
177	0x3dd90281	0.10596181
178	0xbc8237ea	-0.015895803
179	0x3e8f4470	0.279819
180	0xbe7088f2	-0.2348974
181	0x3ddf4c47	0.109032206
182	0x3d5c9e28	0.053861767
183	0x3e37ad18	0.17937124
184	0x3ea51ea6	0.32249945
185	0x3d32b9b5	0.043634135
186	0x3e61071b	0.21975367
187	0x3d0e6e0a	0.03477291
188	0xbe23df1e	-0.16003081
189	0x3d1f3ee6	0.038878344
190	0x3e3b8554	0.1831258
191	0xbe454344	-0.19263941
192	0xbeab4dd4	-0.33457816
193	0xbeb41dc9	-0.35178974
194	0x3eaf6099	0.34253386
195	0x3cb62013	0.022232091
196	0x3d58946b	0.052875917
197	0x3e3007d7	0.1719049
198	0x3e6b974a	0.23006931
199	0xbd5eb384	-0.05437042
200	0xbd213cc8	-0.039364606
201	0x3e8a22b7	0.2697961
202	0x3e8d1c7a	0.27560788
203	0xbb85b105	-0.0040799403
204	0x3e6ad293	0.2293189
205	0x3de4a885	0.11164955
206	0xbe9a21bf	-0.3010387
207	0xbe7b3fb0	-0.24536014
208	0x3c0a19cf	0.008429005
209	0xbcf078eb	-0.029354533
210	0x3e37c0fc	0.17944711
211	0x3c856054	0.016281284
212	0xbe614a92	-0.22001103
213	0xbda4e399	-0.08051223
214	0x3b01967a	0.001977353
215	0xbed43aea	-0.41451198
216	0x3e8cad4e	0.2747597
217	0x3f0d9a35	0.55313426
218	0xbdf6df46	-0.12054305
219	0x3eba6334	0.3640381
220	0xbd8cb51e	-0.06870483
221	0x3e5a2f04	0.21306998
222	0xbe1f0d09	-0.15532316
223	0x3ca2489a	0.01981001
224	0x3e84e68d	0.25957146
225	0x3d9f7369	0.077856846
226	0x3e1e2303	0.15443043
227	0x3de3a79b	0.111159526
228	0xbd85033f	-0.0649476
229	0x3eb01d35	0.34397283
230	0x3d89666e	0.0670899
231	0xbe208826	-0.15676937
232	0x3e8d31de	0.27577108
233	0xbcd79c9d	-0.026319796
234	0x3e0f2d6d	0.13982172
235	0x3e9e331b	0.30898365
236	0x3d4b52b2	0.04963941
237	0x3e19f1b9	0.15033616
238	0xbe231093	-0.15924291
239	0x3c0c7892	0.008573668
240	0x3dd2e14c	0.10296878
241	0xbd4bea0e	-0.04978376
242	0x3e430d3e	0.1904802
243	0x3cb62963	0.022236532
244	0x3c998185	0.018738518
245	0xbd9364a3	-0.07196929
246	0xbd6f817e	-0.058473103
247	0xbe896fce	-0.26843113
248	0xbd6e7eff	-0.05822658
249	0x3e3fca43	0.187295
250	0xbe0e73e6	-0.13911399
251	0x3c969a37	0.018384082
252	0x3e965035	0.29358068
253	0xbd04b9fe	-0.03240394
254	0xbcebc08f	-0.028778343
255	0x3d7e7574	0.06212373

lstm.bias_ih_l0 f4 [256]
0	0x3d5b9a2e	0.053613834
1	0x3de9aa57	0.11409443
2	0xbe7cf4c2	-0.24702743
3	0x3d9ed1af	0.07754838
4	0x3d8a9e55	0.06768481
5	0xbc757af2	-0.014982926
6	0xbd871655	-0.06596056
7	0xbe341086	-0.17584428
8	0x3e3877f9	0.18014516
9	0x3a056882	0.000508912
10	0x3d1f7bea	0.038936533
11	0x3e2be87e	0.16787907
12	0x3dc5b07e	0.09652804
13	0xbe462a15	-0.1935199
14	0xbd81b6e4	-0.06333712
15	0x3ddef9b7	0.10887473
16	0x3e1b4b96	0.15165552
17	0xbd082d2f	-0.033246215
18	0xbd9793a5	-0.07401208
19	0x3d9ee0d9	0.0775773
20	0x3c6f1f1a	0.0145948175
21	0x3da68cdd	0.08132336
22	0x3ea05d64	0.3132125
23	0x3e2af488	0.16694844
24	0x3d104a40	0.03522706
25	0x3dbb3eff	0.09142875
26	0x3e4be6b3	0.19912224
27	0x3d511a74	0.05105062
28	0x3e69d985	0.22836883
29	0x3bd838a9	0.0065985513
30	0xbe1e7f44	-0.15478235
31	0xbd790715	-0.06079777
32	0x3c93c007	0.018035902
33	0x3e700116	0.23437914
34	0x3d66fbe1	0.056392554
35	0x3dbbc6fe	0.09168814
36	0xbe4f1a3f	-0.20224856
37	0xbe60d0e4	-0.21954685
38	0xbe3a0fbb	-0.18170063
39	0x3d869196	0.06570737
40	0x3d488218	0.048952192
41	0x3ca24b04	0.01981116
42	0xbe0a0557	-0.134786
43	0x3e7cb0e5	0.24676855
44	0x3dbdabbb	0.092612706
45	0x3e44132c	0.19147938
46	0x3cec3bf3	0.02883718
47	0x3917f7d2	0.00014492802
48	0x3ca62f54	0.02028624
49	0xbdb2701a	-0.08712788
50	0x3e0fc254	0.14038974
51	0xbe35f2db	-0.17768423
52	0x3e37815b	0.17920439
53	0xbe06a1ab	-0.13147609
54	0x3d7d4569	0.061833773
55	0x3e034f11	0.1282313
56	0x3d9ca92b	0.07649454
57	0x3e8fe57b	0.28104767
58	0xbcedf296	-0.029046338
59	0xbda3ab1f	-0.07991623
60	0xbcd38b2d	-0.0258232
61	0x3ce88264	0.028382488
62	0xbc413b69	-0.01179395
63	0x3dad94b4	0.084756285
64	0x3e0ae20a	0.1356279
65	0xbe33fbc8	-0.17576516
66	0x3e4a8c4a	0.19780079
67	0x3e3da5a3	0.18520217
68	0x3d1064a0	0.035252213
69	0xbcf6c206	-0.030121814
70	0xbda2547e	-0.07926272
71	0x3d4b5b80	0.049647808
72	0xbcdc61b4	-0.026902057
73	0xbddb7d3d	-0.10717247
74	0xbdba4e32	-0.09096946
75	0xbc5505d0	-0.013001874
76	0xbe539d98	-0.20665586
77	0xbe3dfb9f	-0.18553017
78	0x3dfa6216	0.1222574
79	0x3af59ddb	0.0018739061
80	0xbe1d9b81	-0.15391351
81	0xbd39817e	-0.04528951
82	0xbcb4cfe6	-0.02207179
83	0x3de93988	0.11387926
84	0x3da68a2a	0.081318215
85	0x3e41615b	0.18884794
86	0x3e21bfbe	0.157958
87	0x3cf81eca	0.030288119
88	0x3b9bb2d2	0.0047515417
89	0xbc30bd8d	-0.01078738
90	0xbd3c64a1	-0.045994405
91	0xbdbf9d8e	-0.09356223
92	0xbd8aec6e	-0.06783377
93	0x3dea07bb	0.11427256
94	0x3d33e67d	0.043920983
95	0xbd878943	-0.066179775
96	0xbaf0ede6	-0.0018381446
97	0xbd5df2ac	-0.054186508
98	0xbce5f8b0	-0.028072685
99	0xbc252f5e	-0.010082094
100	0x3e57e0c8	0.21081841
101	0x3d989621	0.0745051
102	0x3dcf2cf9	0.10116
103	0xbcf07455	-0.029352346
104	0x3e08e752	0.13369492
105	0xbd2697d0	-0.040672123
106	0xbdbf056f	-0.09327208
107	0x3d6f3287	0.058397796
108	0x3b32e52b	0.002729724
109	0x3d93cc95	0.07216755
110	0xbe4ba3f5	-0.19886763
111	0x3e935b59	0.2878063
112	0xbe0e35c5	-0.13887699
113	0xbb143c4f	-0.0022618955
114	0x3e218538	0.15773475
115	0xbe2aca74	-0.16678792
116	0x3d2bd733	0.041953277
117	0x3c33a499	0.010964536
118	0xbc283a82	-0.010267856
119	0xbe1e56cf	-0.15462802
120	0xbd800451	-0.06250823
121	0xbdab433b	-0.083624326
122	0xbe6d873e	-0.23196122
123	0x3d593ee0	0.053038478
124	0xbc9f1108	-0.0194173
125	0xbd74c425	-0.05975737
126	0xbe377547	-0.17915832
127	0xbe05e746	-0.13076505
128	0xbe35f300	-0.17768478
129	0xbe0bbdf1	-0.13646676
130	0x3d365df5	0.0445232
131	0xbe715823	-0.23568778
132	0x3c0f99e1	0.008764715
133	0x3e2c0c4e	0.16801569
134	0xbd0ba0a1	-0.034088735
135	0xbda9618c	-0.08270559
136	0x3e2375b2	0.15962866
137	0x3d95c51b	0.073129855
138	0x3e2426a4	0.16030365
139	0xbdb3342d	-0.08750186
140	0xbd9c5a30	-0.076343894
141	0xbd010718	-0.031500906
142	0xbddf6960	-0.109087706
143	0xbe4c511c	-0.19952816
144	0x3d399ee7	0.045317557
145	0xbdad4d7d	-0.08462045
146	0x3dbefe75	0.093258776
147	0x3d8042ca	0.06262739
148	0xbe160e65	-0.14653929
149	0x3dde3eef	0.108518474
150	0x3df6553b	0.12027975
151	0xbe21cb92	-0.15800312
152	0xbd77fd37	-0.06054422
153	0xbd6e23b4	-0.058139518
154	0xbc65fe06	-0.014037615
155	0xbe68848e	-0.22706816
156	0xbde39289	-0.11111934
157	0xbb288ee1	-0.0025719928
158	0xbe11f85d	-0.142549
159	0xbe403fbf	-0.18774317
160	0x3d4b258c	0.049596354
161	0xbd24c882	-0.04023028
162	0x3d60538d	0.05476718
163	0x3e3dfbb0	0.18553042
164	0xbd94cdf2	-0.072658435
165	0x3e24486c	0.16043252
166	0x3d87894f	0.066179864
167	0xbe18c8de	-0.14920375
168	0x3c7850d0	0.015155986
169	0xbcd2a8a7	-0.025715185
170	0x3d94b5fb	0.072612725
171	0x3e3e645e	0.18592975
172	0x3df79fb9	0.120910116
173	0xbb8c1ac3	-0.004275651
174	0xbde02523	-0.10944583
175	0x3be2583a	0.00690749
176	0xbd7af7e5	-0.061271567
177	0xbdcd7766	-0.10032539
178	0xbc53852e	-0.0129101705
179	0xbdad3d61	-0.08458973
180	0x3e6334c3	0.22188096
181	0xbe18564b	-0.14876668
182	0xbdc9e368	-0.098578274
183	0xbd9b1925	-0.07573155
184	0x3dbb897a	0.09157081
185	0x3c6fe00d	0.01464082
186	0xbd42db5c	-0.04757248
187	0x3dba2e78	0.090908945
188	0x3d8a1115	0.067415394
189	0x3c3f02a0	0.011658341
190	0x3dd04986	0.101702735
191	0xbd38a1b6	-0.045076095
192	0xbce2a50a	-0.027666587
193	0x3e4b1954	0.1983388
194	0xbdea6e7c	-0.114468545
195	0xbd908e8c	-0.07058439
196	0x3d1070d3	0.035263848
197	0x3ccdf26a	0.025140006
198	0xbd0d88c4	-0.034554258
199	0xbe02e46d	-0.1278245
200	0xbd5f5620	-0.054525495
201	0xbe04ed44	-0.12981135
202	0xbdff269e	-0.124585375
203	0x3e5c60b7	0.21521269
204	0xbd896c5a	-0.067101195
205	0x3e2f8101	0.17139055
206	0x3d6b9cd2	0.057522602
207	0x3d469f9f	0.04849207
208	0x3df70aec	0.1206263
209	0x3d429681	0.047506813
210	0x3cc7f3c0	0.024408221
211	0x3d8378ae	0.06419502
212	0x3e44f39b	0.19233553
213	0xbdd13e40	-0.10216951
214	0xbc886131	-0.016647907
215	0x3e176c16	0.14787325
216	0xbe2a8025	-0.16650446
217	0x3d3d8ef9	0.046278927
218	0x3e8588b8	0.2608087
219	0x3ee25022	0.4420176
220	0x3eac8fce	0.33703464
221	0x3d182a6a	0.037149824
222	0xbdbe9981	-0.09306622
223	0xbda26262	-0.07928921
224	0x3db93953	0.09044137
225	0xbca44aa0	-0.020055115
226	0x3e0b0211	0.13575007
227	0x3d6bfc54	0.057613686
228	0x3d9ef09a	0.07760735
229	0xbdbacbce	-0.09120904
230	0x3d32aeca	0.043623723
231	0x3dfb5b68	0.12273294
232	0xbda0eab2	-0.078572646
233	0x3d2e03d7	0.04248413
234	0xbd8d1800	-0.06889343
235	0xbd77819f	-0.06042635
236	0x3e80adb0	0.25132513
237	0x3e407fb3	0.18798713
238	0x3e4bcbb4	0.19901925
239	0x3daf4f10	0.08560002
240	0x3c58a492	0.01322283
241	0xbda90d6a	-0.08254512
242	0xbe1b3bbf	-0.1515951
243	0xbde79031	-0.11306799
244	0x3e24cd18	0.16093862
245	0x3bf994b1	0.0076166024
246	0xbe239ab9	-0.15976991
247	0x3dc2ccf7	0.0951175
248	0xbc523c53	-0.012831765
249	0x3d90ce62	0.070706144
250	0xbc66aabc	-0.014078792
251	0x3bce8b63	0.0063032373
252	0xbc5e70a1	-0.0135766575
253	0x3c8c90df	0.017158924
254	0x3980793d	0.00024504392
255	0x3b8d04b5	0.0043035396

lstm.bias_hh_l0 f4 [256]
0	0xbca44272	-0.020051215
1	0x3c11761a	0.008878255
2	0xbe193679	-0.14962186
3	0x3d96507f	0.07339572
4	0xbe013380	-0.12617302
5	0x3ce1c622	0.027560297
6	0xbd419d63	-0.047269236
7	0xbdae3db3	-0.08507862
8	0x3e6f35e7	0.23360406
9	0x3a8c7be7	0.0010718078
10	0xbe217843	-0.15768532
11	0x3cf78c51	0.030218275
12	0xbe02f7ac	-0.12789792
13	0xbe6af823	-0.22946219
14	0xbd9f59f4	-0.07780829
15	0x3da2e150	0.07953131
16	0x3e1fdd67	0.15611802
17	0x3cb6140f	0.022226362
18	0xbdbdfe15	-0.09276978
19	0x3ddeec8c	0.108849615
20	0xbd66f46f	-0.056385454
21	0x3cf5faaa	0.030026753
22	0x3e32cb56	0.17460379
23	0x3df0a1ac	0.117495865
24	0xbe225147	-0.15851317
25	0x3ce2c641	0.027682425
26	0x3dd0cee1	0.10195709
27	0x3e46e363	0.19422679
28	0x3e40bc74	0.18821889
29	0xbd52f97c	-0.051507458
30	0x3d24f4ed	0.040272642
31	0x3d7d137d	0.061786164
32	0x3e47df01	0.19518663
33	0x3e6e3047	0.23260604
34	0x3d9950bc	0.07486102
35	0xbe15a4fd	-0.1461372
36	0xbdc09914	-0.09404197
37	0xbe029331	-0.12751462
38	0xbe04e51b	-0.12978022
39	0x3e0588d0	0.13040471
40	0x3e100360	0.14063787
41	0x3e35734c	0.17719764
42	0xbe2b6a01	-0.16739656
43	0x3ed05fea	0.40698177
44	0xbd5108e0	-0.051033854
45	0x3e479916	0.19491991
46	0x3d6ecddc	0.05830179
47	0xbe0bfff6	-0.1367186
48	0x3d8b1cc4	0.06792596
49	0x3cdb97ad	0.026805723
50	0x3d4136a2	0.047171243
51	0xbe2c5155	-0.168279
52	0x3d73aa62	0.05948866
53	0xbe19dcbe	-0.15025613
54	0x3d5f11ff	0.05446052
55	0x3e54560c	0.2073595
56	0x3e456105	0.19275291
57	0x3e882c54	0.2659632
58	0xbca5291b	-0.020161202
59	0x3d6c7c2b	0.057735603
60	0xbd9b0a25	-0.07570294
61	0x3bff2210	0.007786043
62	0x3e0c038e	0.13673231
63	0xbb96ab1c	-0.0045980345
64	0x3e344ee2	0.17608216
65	0xbdadce89	-0.08486659
66	0x3e341115	0.17584641
67	0x3c745fc6	0.014915412
68	0xbcf72686	-0.030169737
69	0xbdbfbc1d	-0.09362052
70	0x3d35dd32	0.0444004
71	0xbd6f5962	-0.05843485
72	0x3d9c16ee	0.07621561
73	0x3bc8918a	0.0061208652
74	0xbda377ab	-0.07981809
75	0xbe1b18a8	-0.15146124
76	0xbe783cc3	-0.24241929
77	0xbd8e7b49	-0.069571085
78	0x3e47c6dd	0.19509454
79	0xbd10b3f3	-0.035327863
80	0xbe55c657	-0.20876442
81	0xbe2e6584	-0.17030913
82	0x3d58bbbe	0.05291342
83	0xbdf3f254	-0.11911455
84	0xbdae8de7	-0.085231595
85	0x3e5acdef	0.2136762
86	0x3e12c39e	0.14332435
87	0x3d38a67f	0.045080658
88	0xbd0fcddf	-0.035108443
89	0xbe16cf38	-0.14727485
90	0x3ddc00fd	0.10742376
91	0xbe32fbbf	-0.17478846
92	0xbe00a34c	-0.12562293
93	0x3da164da	0.07880564
94	0xbe004d94	-0.12529594
95	0x3d8f4df5	0.06997291
96	0xbd1fa187	-0.038972404
97	0x3ddd0a64	0.107929975
98	0xbe0d29f3	-0.13785534
99	0xbd5acb72	-0.053416677
100	0x3df96af4	0.12178603
101	0x3ccc1baa	0.024915535
102	0xbd6b15f7	-0.057393994
103	0x3cfa3599	0.030543135
104	0x3a9b161d	0.0011832152
105	0xbd37e29e	-0.044893853
106	0xbe231db6	-0.15929303
107	0x3da6e50c	0.08149156
108	0x3c849f54	0.016189255
109	0x3e0bdf1c	0.13659328
110	0xbe2c978b	-0.16854684
111	0x3e721928	0.23642409
112	0xbe410beb	-0.18852203
113	0x3ce8004f	0.02832046
114	0x3e86cac5	0.26326576
115	0xbd7caee0	-0.06169021
116	0x3e1c6cca	0.15275875
117	0xbd6e2653	-0.058142018
118	0x3d1780bd	0.03698801
119	0xbd1f8713	-0.038947176
120	0x3d3a3646	0.045461915
121	0xbd30be83	-0.043150436
122	0xbcfe5e5b	-0.031050852
123	0x3d00a4c9	0.03140715
124	0x3e0d444e	0.13795587
125	0x3cc0f567	0.023554517
126	0xbdd57df4	-0.10424414
127	0xbdc43736	-0.09580843
128	0xbe20824a	-0.15674701
129	0xbe1a10c6	-0.15045461
130	0x3d24e787	0.040259864
131	0xbd4146a6	-0.047186516
132	0xbe048ccb	-0.12944333
133	0x3da88f9c	0.08230516
134	0xbd64f834	-0.055900767
135	0xbe152df4	-0.14568311
136	0x3d3bd1a0	0.04585421
137	0x3e00aab7	0.12565123
138	0x3bbaaba0	0.005696729
139	0xbda2d4c0	-0.07950735
140	0x3da2207f	0.079163544
141	0xbe5f627f	-0.21814917
142	0x3b365670	0.0027822517
143	0xbe1d33d3	-0.153518
144	0x3d960081	0.07324315
145	0xbe027391	-0.12739398
146	0x3daeebaf	0.08541047
147	0x3d77893b	0.060433608
148	0xbd97becd	-0.07409439
149	0x3ced70fb	0.028984537
150	0x3d1fdd99	0.03902969
151	0xbe1f583a	-0.15561
152	0x3dfa3935	0.122179426
153	0xbdee24a1	-0.1162808
154	0xbc489a0a	-0.012243757
155	0xbd2adeda	-0.041716434
156	0xbe3e98d8	-0.18612993
157	0x3d904114	0.07043663
158	0x3d8bac90	0.06820023
159	0xbdb56c16	-0.088585064
160	0xbcf2e974	-0.029652335
161	0xbd8fd4b1	-0.070229895
162	0x3e4079bb	0.18796436
163	0x3dbdd3bd	0.092689015
164	0x3d12bdde	0.035825603
165	0x3e3b8ac4	0.18314654
166	0x3df904c4	0.12159112
167	0xbd93a225	-0.07208661
168	0x3d6800b9	0.056641314
169	0x3ddbb9d3	0.107288025
170	0x3c0d011a	0.00860622
171	0x3e802197	0.25025627
172	0x3d9e86af	0.077405326
173	0xbe008d35	-0.12553866
174	0x3ceb2c8a	0.028707761
175	0xbd01becf	-0.03167611
176	0x3cc34ca0	0.023840249
177	0xbd519f58	-0.051177353
178	0x3bebe472	0.0071988637
179	0x3dce2ecf	0.10067522
180	0x3e957c14	0.29196227
181	0xbe1c63fb	-0.15272515
182	0xbacae16f	-0.0015478561
183	0xbd9b8649	-0.07593972
184	0x3b9e9a47	0.0048401686
185	0xbdec61ba	-0.11542077
186	0xbe43e8e8	-0.19131815
187	0xbdaa4562	-0.08314015
188	0x3e5c7d42	0.21532157
189	0xbdbaa863	-0.091141485
190	0x3c91a891	0.017780574
191	0xbb095c53	-0.002095957
192	0xbe54bff9	-0.20776357
193	0x3dc8b201	0.097995766
194	0xbd35ca08	-0.044382125
195	0xbe064a1a	-0.13114205
196	0x3d060210	0.03271681
197	0xbd3d6619	-0.046239946
198	0xbdd9ba78	-0.10631269
199	0x3cfe9971	0.031079026
200	0x3dcf76fd	0.10130117
201	0xbe49829c	-0.1967873
202	0xbe17296c	-0.14761895
203	0x3cb1bf4d	0.021697665
204	0xbd7b1824	-0.06130232
205	0x3e0e25fd	0.13881679
206	0x3d9e76de	0.07737516
207	0xbdabd6f0	-0.083906054
208	0x3d9cb12c	0.0765098
209	0x3ca0fb90	0.019651204
210	0xbd96d2f6	-0.07364456
211	0x3cda2e99	0.026633548
212	0x3decb43b	0.11557814
213	0xbe0de33b	-0.13856213
214	0x3e072177	0.1319636
215	0x3e1ed6ca	0.15511623
216	0xbe22b141	-0.1588793
217	0x3e075e85	0.1321965
218	0x3da74fd9	0.081695266
219	0x3ebee2a6	0.37282294
220	0x3eaae952	0.33381134
221	0x3d848aee	0.06471811
222	0xbd8f4f3e	-0.06997536
223	0xbe227835	-0.15866168
224	0x3e2822dd	0.1641955
225	0xbdef28f7	-0.11677735
226	0x3e1dd684	0.15413862
227	0x3d88fff4	0.06689444
228	0xbda663f3	-0.081245326
229	0x3a38b67b	0.00070462347
230	0xbd733be5	-0.05938329
231	0x3e28425e	0.16431567
232	0xbdbb45b0	-0.09144151
233	0x3e326970	0.17423034
234	0x3ca00c47	0.019537104
235	0x3d9ca563	0.076487325
236	0x3e8f82a9	0.28029373
237	0x3dda0f69	0.106474705
238	0x3e4aacaf	0.19792436
239	0x3d6b030a	0.057375945
240	0x3dd073b4	0.101783186
241	0x3d9ea943	0.07747128
242	0xbe79b9c1	-0.24387266
243	0xbdb9a8f4	-0.090654284
244	0x3d5b92e2	0.053606875
245	0x3d993dfc	0.07482526
246	0xbe66a859	-0.22525157
247	0x3e1c9b8d	0.15293713
248	0x3e238eed	0.1597249
249	0x3d4a50ef	0.04939359
250	0x3dc32401	0.095283516
251	0x3da17934	0.07884446
252	0xbda2ca04	-0.07948688
253	0xbd890b96	-0.06691663
254	0x3d9154d3	0.07096257
255	0xbdea6aa7	-0.114461236

lstm.weight_ih_l0_reverse f4 [256, 256]
0	0xbdf417d0	-0.119186044
1	0xbe15f2b9	-0.14643373
2	0xbdfd2b61	-0.123617895
3	0xbe81348e	-0.2523541
4	0xbe13cb4f	-0.14433025
5	0x3c093acd	0.008375836
6	0xbe6a84ca	-0.22902218
7	0xbe37270b	-0.17885987
8	0xbe28b819	-0.16476478
9	0x3e18e26d	0.14930125
10	0x3e9e6198	0.30933833
11	0x3df1ee07	0.11812978
12	0x3e8be250	0.273211
13	0x3e556931	0.20840909
14	0xbb163745	-0.0022921127
15	0xbe9c27f3	-0.3049923
16	0x3d5ca209	0.053865466
17	0xbde852e1	-0.11343933
18	0xbcb2ad91	-0.021811279
19	0x3c9883ed	0.018617595
20	0x3ce9954c	0.028513573
21	0xbe09d81c	-0.13461345
22	0xbe37297b	-0.17886917
23	0xbcd65128	-0.026161745
24	0x3e3b869a	0.18313065
25	0x3ea5c8f5	0.3237988
26	0x3ced23bf	0.02894771
27	0xbde8e925	-0.11372594
28	0xbd914715	-0.07093636
29	0xbdd681c8	-0.104739726
30	0x3dcd846f	0.10035025
31	0x3c5c080d	0.013429654
32	0xbe7630f2	-0.24042109
33	0x3e1bcefd	0.15215679
34	0x3dd8a01d	0.10577414
35	0x3d85c42d	0.06531558
36	0x3d2586a0	0.04041159
37	0x3d26e158	0.04074225
38	0xbd491f4e	-0.04910212
39	0x3ca22213	0.019791638
40	0x3d3668a2	0.04453338
41	0x3d044747	0.032294538
42	0xbe56924b	-0.20954244
43	0xbe0f4c63	-0.13993983
44	0xbea2e4c4	-0.3181516
45	0x3d2586b2	0.04041166
46	0x3e0cf59d	0.13765569
47	0x3ce93a20	0.028470099
48	0x3d38ee99	0.04514942
49	0xbdf19c56	-0.11797397
50	0x3d3d25c7	0.046178605
51	0xbd1c6e10	-0.0381909
52	0xbdca30ec	-0.09872612
53	0x3d568ebf	0.052382227
54	0xbd185065	-0.037186045
55	0x3c48de4b	0.01226003
56	0xbe084c90	-0.13310456
57	0x3e7bd620	0.24593401
58	0xbda4e13f	-0.08050775
59	0xbd6cec85	-0.05784275
60	0xbdf222cc	-0.11823043
61	0x3b7f6265	0.003896856
62	0xbe0391c8	-0.1284858
63	0x3dcdec11	0.10054792
64	0x3e933177	0.28748676
65	0x3cddf517	0.027094407
66	0x3d51418a	0.051087894
67	0x3e7f4459	0.24928416
68	0x3e2a7c8d	0.16649075
69	0x3c24570a	0.010030517
70	0x3dfa8cc7	0.122338824
71	0x3d603789	0.054740462
72	0xbd94762a	-0.072491005
73	0x3b419ce2	0.0029542972
74	0x3b54a8bf	0.0032449213
75	0x3c524417	0.012833617
76	0xbd43dba5	-0.04781689
77	0x3ca09397	0.019601626
78	0xbe4f171c	-0.2022366
79	0xbd9cd23b	-0.07657286
80	0xbe3da984	-0.18521696
81	0xbe2ea9e5	-0.17056997
82	0xbe1c6d84	-0.15276152
83	0x3d803607	0.06260305
84	0xbd3a4964	-0.045480147
85	0xbd87afbf	-0.06625318
86	0xbe1e9378	-0.15485942
87	0xbd4177f7	-0.047233548
88	0x3c4a58cf	0.012350275
89	0xbe2f4d6f	-0.17119382
90	0xbe176ac9	-0.14786829
91	0xbe3dd74e	-0.18539163
92	0xbe532a1d	-0.20621534
93	0xb944094e	-0.00018695483
94	0x3d8083dc	0.0627515
95	0xbe2e4a6d	-0.17020579
96	0xbe2ae3a7	-0.16688405
97	0xbe0e8909	-0.13919462
98	0x3e96df06	0.29467028
99	0x3e175b11	0.14780833
100	0x3c9cafe7	0.019126846
101	0xbd4ca030	-0.049957454
102	0xbc536c92	-0.012904303
103	0xbe2b2e16	-0.16716799
104	0xbef28653	-0.47368106
105	0x3b6732b5	0.0035278026
106	0x3d9ce9c9	0.076617785
107	0x3e35368b	0.17696588
108	0x3e744e9b	0.2385811
109	0xbd85b510	-0.065286756
110	0x3d1231ab	0.0356919
111	0xbd951a5b	-0.072804175
112	0xbdc056cf	-0.093915574
113	0xbe395edc	-0.18102592
114	0xbe5b419f	-0.21411751
115	0xbea98717	-0.33110878
116	0xbe826e9a	-0.25475007
117	0xbddfc0e3	-0.10925462
118	0xbe3d7f91	-0.18505694
119	0xbdd8cded	-0.10586152
120	0xbde0188e	-0.109421834
121	0x3d57fb78	0.052730054
122	0x3d261753	0.040549587
123	0x3dcf0c60	0.10109782
124	0x3dfca89b	0.123368464
125	0x3d5cc040	0.05389428
126	0xbe1d0236	-0.15332875
127	0xbdf6e74a	-0.12055834
128	0xbe2a3439	-0.16621484
129	0x3ea742d0	0.3266816
130	0x3d6347e1	0.05548847
131	0x3d798ada	0.060923435
132	0x3c9859ca	0.018597502
133	0x3d92ee3b	0.07174345
134	0x3d88c97e	0.066790566
135	0x3e737305	0.23774345
136	0xbdcfd909	-0.10148818
137	0x3cee783d	0.029110068
138	0x3d15b322	0.036547787
139	0x3d8b0cfc	0.06789586
140	0x3e4a0c11	0.19731165
141	0x3e0ca992	0.13736561
142	0xbceda15f	-0.029007612
143	0xbc38cc64	-0.011279199
144	0x3daf5d5d	0.085627295
145	0x3d8b7e02	0.068111435
146	0x3c58e694	0.013238568
147	0x3db6d63f	0.08927583
148	0x3da29870	0.079392314
149	0xbd89d3b5	-0.06729833
150	0x3e0482e4	0.12940556
151	0x3cc7c1c9	0.024384396
152	0xbe092b33	-0.13395385
153	0xbe84bb64	-0.25924218
154	0xbe0026a9	-0.12514748
155	0xbdd9173a	-0.10600133
156	0xbe143e99	-0.14477004
157	0xbe448087	-0.19189654
158	0xbeb0c53b	-0.34525475
159	0xbe6f4dfc	-0.23369592
160	0xbd25e422	-0.040500768
161	0xbe491ef1	-0.1964071
162	0x3de166ac	0.11005911
163	0x3dce62d0	0.10077441
164	0x3c27a6ae	0.010232611
165	0xbd009ce0	-0.031399608
166	0xbe06faaf	-0.13181566
167	0xbde5c5ea	-0.1121939
168	0x3de54cda	0.11196299
169	0x3df1f9b5	0.11815206
170	0x3e3b8b32	0.18314818
171	0x3cbaace4	0.022787519
172	0x3e3d9e3a	0.1851739
173	0x3c97816d	0.018494332
174	0x3e5ff03a	0.21868983
175	0x3dcf7203	0.10129168
176	0x3d1e5abe	0.038660757
177	0x3cbcca64	0.023045726
178	0xbe39a980	-0.18131065
179	0x3d4fdf2b	0.05074994
180	0xbea58bae	-0.3233313
181	0xbe845853	-0.25848636
182	0xbd721b94	-0.05910833
183	0xbdd0e03e	-0.10199021
184	0xbe3883de	-0.18019053
185	0xbe6d1add	-0.23154779
186	0xbc830cd8	-0.015997335
187	0xbd89a754	-0.067213684
188	0xbe3356b0	-0.17513537
189	0xbdfe626c	-0.12421116
190	0xbe215c56	-0.1575788
191	0xbe331765	-0.17489393
192	0xbe7a3603	-0.24434666
193	0xbe6e985d	-0.2330031
194	0xbe377223	-0.17914633
195	0xbe0b39fc	-0.13596338
196	0xbe102dc0	-0.14079952
197	0xbe64d890	-0.22348237
198	0xbe506d90	-0.20354295
199	0xbe99b7f3	-0.30023155
200	0x3ccadd6f	0.02476379
201	0x3c86f761	0.016475381
202	0x3b2e0d8d	0.002655837
203	0xb9f35552	-0.0004641214
204	0x3d900218	0.07031649
205	0x3d8ff26c	0.0702866
206	0xbd67eea0	-0.056624055
207	0x3c309fa1	0.010780246
208	0xbea57314	-0.3231436
209	0xbdb7c6e5	-0.08973483
210	0x3e7c048f	0.24611114
211	0xbd81d146	-0.06338744
212	0xbe43d0e6	-0.19122657
213	0x3da848fa	0.08217044
214	0x3da66afc	0.081258744
215	0xbe99a6fc	-0.3001021
216	0x3db06208	0.08612448
217	0xbd589ea4	-0.052885666
218	0xbc1a5650	-0.009419993
219	0x3c4d0774	0.012513984
220	0x3dec49f8	0.11537546
221	0xbd9134a5	-0.07090119
222	0x3c423b1a	0.011854911
223	0x3c446f36	0.011989405
224	0x3e2782f1	0.16358544
225	0x3d26dd2d	0.040738273
226	0x3d49376c	0.04912512
227	0x3d5e8209	0.05432323
228	0xbcb9d3ad	-0.022683943
229	0x3d940244	0.07226995
230	0x3d2669e7	0.04062834
231	0x3d9cd50c	0.07657823
232	0xbca0cb73	-0.019628262
233	0x3e10d74d	0.1414463
234	0xbd3364a3	-0.043797147
235	0xbdc71337	-0.09720462
236	0xbddb183f	-0.10697984
237	0x3bcd35f0	0.0062625334
238	0x3de3c455	0.11121432
239	0x3de65529	0.11246712
240	0x3da4451f	0.08020996
241	0xbe45f6d0	-0.19332433
242	0xbe8323af	-0.25613162
243	0xbdf5bc49	-0.11998803
244	0xbd938c3b	-0.07204481
245	0xbd700509	-0.058598552
246	0xbdc1c4e6	-0.094613835
247	0xbe7a5eb9	-0.24450196
248	0x3e93015e	0.2871198
249	0x3e605685	0.21908005
250	0xbe041eb3	-0.12902336
251	0xbdb19e39	-0.08672757
252	0xbe49ba74	-0.19700032
253	0x3e3bc609	0.18337263
254	0x3cf809a7	0.03027804
255	0x3e6f4d2f	0.23369287
